runs/wargame.pt (torch, 2717 bytes, 4 tensors)

fc1.weight f4 [10, 4]
-1.0305433 -1.3533083 2.7111702 2.0919533 -0.07148802 -0.09072083 -0.37582898 -0.4230464
3.4038055 3.0740592 -0.053930253 0.4485939 2.514315 2.843398 0.37712988 0.033254992
-1.4024221 -1.7067237 2.6407642 2.2001781 0.63493687 -0.2570776 0.13576475 0.12967756
-0.6345952 -1.2866648 2.4226437 2.352429 -0.6783527 -1.2967378 2.6796703 1.9001534
-0.1945104 0.007241018 -0.07949813 -0.21156207 -1.3308214 -0.9630748 2.7480323 2.7613313
00000000: d8e8 83bf 3539 adbf d083 2d40 90e2 0540
00000010: 5068 92bd d8cb b9bd a86c c0be 8a99 d8be
00000020: f3d7 5940 63bd 4440 f8e5 5cbd 1aae e53e
00000030: 89ea 2040 3cfa 3540 2b17 c13e 6336 083d
00000040: 9182 b3bf ec75 dabf 4802 2940 b8cf 0c40
00000050: 398b 223f ad9f 83be ea05 0b3e 32ca 043e
00000060: d574 22bf 6fb1 a4bf 980c 1b40 328e 1640
00000070: 86a8 2dbf 81fb a5bf b87f 2b40 3a38 f33f
00000080: bc2d 47be 1046 ed3b eacf a2bd baa3 58be
00000090: 5b58 aabf 128c 76bf c3df 2f40 a7b9 3040

fc1.bias f4 [10]
2.3746634 -0.29559094 0.24408048 0.8460037 2.5023599 0.070699185 2.5219734 2.3304322
-0.5251127 2.6523578
00000000: 7cfa 1740 b257 97be 3cf0 793e b393 583f
00000010: aa26 2040 bcca 903d 0368 2140 cd25 1540
00000020: c96d 06bf 3bc0 2940

output.weight f4 [4, 10]
-1.9280635 -0.3015357 1.9531415 1.768629 -2.209021 -0.9471258 -1.8244396 -1.7873914
-0.079914555 -1.9605143 -1.9853154 0.10951473 1.8220551 1.7076943 -2.1342835 1.535253
-1.9720961 -2.2002501 -0.31510562 -1.598023 -1.982325 -0.20754659 1.73141 1.7116979
-1.8854767 0.64004904 -2.2644427 -2.1793895 -0.29014334 -1.858354 -2.2300062 0.12886108
1.7999837 1.6183245 -1.9394939 0.72691536 -1.9720775 -2.1853564 -0.18441604 -1.907232
00000000: c9ca f6bf e362 9abe 8a00 fa3f 6f62 e23f
00000010: 9a60 0dc0 d676 72bf 3d87 e9bf 3ec9 e4bf
00000020: 3eaa a3bd 22f2 fabf d11e febf 4249 e03d
00000030: 1a39 e93f ba95 da3f 1a98 08c0 2c83 c43f
00000040: a56d fcbf e6d0 0cc0 8655 a1be 058c ccbf
00000050: d3bc fdbf 1887 54be d89e dd3f eb18 db3f
00000060: 4d57 f1bf 41da 233f a1ec 10c0 1e7b 0bc0
00000070: ab8d 94be 8bde edbf 6cb8 0ec0 29f4 033e
00000080: de65 e63f 4225 cf3f 5641 f8bf 2017 3a3f
00000090: 096d fcbf e1dc 0bc0 8fd7 3cbe 2e20 f4bf

output.bias f4 [4]
-1.3978103 -1.0699193 -1.5903846 -1.2716469
00000000: 73eb b2bf 1ef3 88bf b991 cbbf 53c5 a2bf
