runs/wargame.pt (torch, 275157 bytes, 6 tensors)

layers.0.weight f4 [256, 4]
0.47285968 -0.0070360727 -0.28490448 -0.02095146 0.10026783 -0.054257195 0.42607924 0.3068775
-0.17188431 0.14220951 0.26391834 0.1496389 0.21528853 -0.4544894 -0.09987179 0.41114828
0.39124867 0.4204325 -0.28225565 -0.005690764 -0.3256235 -0.481611 -0.21015735 0.42717972
0.18902314 0.1832195 -0.13930202 -0.22572987 -0.46311328 -0.08874143 -0.34505045 0.3627884
-0.16853732 0.29073894 0.4959251 -0.14307243 0.3518576 0.01680296 -0.2771854 0.4258389
0.14494762 0.0793355 0.18160948 -0.3991222 -0.17595035 -0.5049047 -0.3698308 -0.28957093
0.09997924 0.18595432 -0.0046578376 -0.38753662 0.18321003 -0.2071203 0.07687881 0.33108842
0.45209846 -0.36193156 -0.13186507 0.44314596 -0.07351929 -0.3484488 0.057033207 -0.09580744
-0.03861058 -0.2992224 -0.018609961 0.26451877 0.26182005 -0.47329485 0.2601651 -0.024561903
0.057368115 0.27858207 0.08736796 -0.39697826 0.20834485 -0.030181056 0.36887735 0.14243586
-0.43516397 -0.46589604 -0.19022083 0.19864641 0.11634037 -0.21602196 0.30368462 -0.31455165
0.029147036 0.21498786 -0.49507838 0.12366518 -0.21868318 0.2113418 0.19437583 -0.27659813
0.36717126 0.11645012 -0.08145147 0.25270277 -0.21631543 -0.1079437 0.29502597 0.45912927
-0.48452124 0.5240789 0.14930686 -0.46775943 -0.08544824 0.25551498 0.2450196 -0.0063885846
0.22457844 -0.3767741 0.3838661 0.28718758 -0.15256937 -0.25606412 0.51167333 -0.20683014
-0.26028386 0.12600635 -0.44451192 -0.45239535 -0.053254407 -0.10834475 0.2702606 -0.37712258
-0.39468762 0.27613506 0.14238128 -0.30104038 -0.3330176 -0.12963085 -0.20077807 0.06854489
0.3331261 -0.036969338 -0.14430067 -0.13753428 0.3822368 0.097744115 0.41773406 -0.24313359
0.36268595 -0.032282777 0.46690047 -0.42521143 0.08686428 0.45857605 -0.15778968 -0.4688117
0.34866798 -0.21897192 0.0919999 -0.3961835 -0.19360167 -0.12569787 0.034534566 -0.43048823
-0.11484273 -0.42153987 -0.44907814 0.24650261 -0.09572658 0.07175204 -0.292259 -0.28659767
-0.47818503 -0.5203395 0.11050264 0.4076515 0.28157145 -0.21979596 0.4728011 0.15918252
-0.041813858 0.085303046 0.11609253 -0.29568097 0.18137355 0.077367514 -0.12188137 -0.16069837
0.21799429 -0.111594774 0.3894078 0.09917719 -0.030504575 -0.3949173 0.36779284 -0.06305158
0.37498558 0.21024998 -0.18352792 0.090076365 -0.19863325 -0.28650385 0.17177185 -0.16567945
-0.005202672 0.30746734 0.37589282 -0.010691257 -0.14253739 -0.43495378 -0.29964292 0.46274686
0.5260854 -0.040723782 -0.11641002 0.022289807 0.4721293 -0.33572578 0.08263868 0.34384474
-0.13491318 -0.23072721 -0.09995193 -0.108238064 -0.33058304 0.39283603 -0.13710648 -0.076571345
-0.3541817 0.3128769 -0.07712404 0.40825194 -0.33133045 -0.41352913 0.35455433 0.07200462
0.19525594 0.2254159 0.19891675 0.05790821 -0.124253936 -0.39675742 0.10274158 0.38152057
-0.12928039 0.5171801 -0.23722875 0.13825801 -0.061106738 -0.30796733 0.35259116 0.40433383
-0.20664008 0.07371534 -0.21957058 -0.50452226 -0.42695138 0.29577672 -0.37623462 -0.53575844
00000000: aa1a f23e db8e e6bb 00df 91be 65a2 abbc
00000010: 3859 cd3d cb3c 5ebd 0f27 da3e 0c1f 9d3e
00000020: 7102 30be 5f9f 113e 4e20 873e f13a 193e
00000030: 9974 5c3e d6b2 e8be 9589 ccbd 0782 d23e
00000040: bf51 c83e ee42 d73e d083 90be 9779 babb
00000050: 20b8 a6be b895 f6be 7d33 57be 4db7 da3e
00000060: 488f 413e e59d 3b3e 30a5 0ebe bb25 67be
00000070: 2f1d edbe 11be b5bd 74aa b0be 67bf b93e
00000080: 0c95 2cbe bcdb 943e e5e9 fd3e 9481 12be
00000090: ae26 b43e 5ca6 893c 3feb 8dbe 8e07 da3e
000000a0: 266d 143e a77a a23d d6f7 393e bf59 ccbe
000000b0: 542c 34be 6f41 01bf 765a bdbe a442 94be
000000c0: eac1 cc3d cf6a 3e3e c6a0 98bb 336b c6be
000000d0: 699b 3b3e 5817 54be a372 9d3d 6c84 a93e
000000e0: 7379 e73e 184f b9be a307 07be 07e4 e23e
000000f0: 4891 96bd e267 b2be a79b 693d b136 c4bd
00000100: 2126 1ebd ae33 99be eb73 98bc 016f 873e
00000110: 470d 863e b453 f2be 5c34 853e 0b36 c9bc
00000120: d4fa 6a3d 4fa2 8e3e f9ed b23d bc40 cbbe
00000130: 5a58 553e 433e f7bc 7edd bc3e b5da 113e
00000140: d0cd debe ed89 eebe 40c9 42be f769 4b3e
00000150: dc43 ee3d dc34 5dbe 8d7c 9b3e ea0c a1be
00000160: c4c5 ee3c c725 5c3e ea7a fdbe 2b44 fd3d
00000170: 7cee 5fbe fc69 583e 750a 473e 459e 8dbe
00000180: dffd bb3e 677d ee3d 07d0 a6bd 4262 813e
00000190: cb81 5dbe 9611 ddbd a50d 973e fe12 eb3e
000001a0: 2b13 f8be 092a 063f e6e3 183e 2a7e efbe
000001b0: 7dff aebd dcd2 823e 6be6 7a3e 5557 d1bb
000001c0: e4f7 653e 89e8 c0be 198a c43e 400a 933e
000001d0: 253b 1cbe d61a 83be 06fd 023f 48cb 53be
000001e0: ed43 85be cf07 013e 1197 e3be 5da0 e7be
000001f0: 4b21 5abd dae3 ddbd 995f 8a3e 3616 c1be
00000200: 7f14 cabe 9361 8d3e 66cc 113e f721 9abe
00000210: 4881 aabe f3bd 04be c498 4dbe 4361 8c3d
00000220: 818f aa3e 296d 17bd 8ec3 13be c9d5 0cbe
00000230: 8bb4 c33e 112e c83d 3de1 d53e 03f8 78be
00000240: f9b1 b93e f23a 04bd 940d ef3e 50b5 d9be
00000250: e6e5 b13d 7bca ea3e 9e93 21be 1608 f0be
00000260: 9c84 b23e 2d3a 60be 726a bc3d 90d8 cabe
00000270: 843f 46be f1b6 00be 1e74 0d3d f468 dcbe
00000280: aa32 ebbd 13d4 d7be 92ed e5be 2e6b 7c3e
00000290: 4c0c c4bd bcf2 923d f9a2 95be eebc 92be
000002a0: abd4 f4be f834 05bf 354f e23d b3b7 d03e
000002b0: 222a 903e 3112 61be fc12 f23e be00 233e
000002c0: 0245 2bbd 5db3 ae3d ecc1 ed3d 7f63 97be
000002d0: fdb9 393e dc72 9e3d f19c f9bd 1d8e 24be
000002e0: e539 5f3e cd8b e4bd 7660 c73e 691d cb3d
000002f0: bbe4 f9bc 9a32 cabe 584f bc3e 3021 81bd
00000300: 1cfe bf3e c54b 573e beee 3bbe f579 b83d
00000310: 8466 4bbe a2b0 92be f6e4 2f3e e0a7 29be
00000320: 2d7b aabb 5c6c 9d3e 0675 c03e 622a 2fbc
00000330: 52f5 11be 43b2 debe cc6a 99be 28ed ec3e
00000340: 88ad 063f fbcd 26bd 6068 eebd 1d99 b63c
00000350: eeba f13e 40e4 abbe 783e a93d 6b0c b03e
00000360: ae26 0abe c143 6cbe 99b3 ccbd ebab ddbd
00000370: 2e42 a9be ce21 c93e a465 0cbe 70d1 9cbd
00000380: 4e57 b5be 6731 a03e 35f3 9dbd 6606 d13e
00000390: 25a4 a9be 17ba d3be 2588 b53e 2977 933d
000003a0: 2cf1 473e 6dd3 663e d5b0 4b3e 2931 6d3d
000003b0: d978 febd ca23 cbbe 2d6a d23d aa56 c33e
000003c0: 1462 04be ea65 043f 18ec 72be 8293 0d3e
000003d0: 0f4b 7abd e5ad 9dbe d486 b43e d804 cf3e
000003e0: 7599 53be 11f8 963d 1cd7 60be 5f28 01bf
000003f0: 5f99 dabe 0c70 973e d3a1 c0be 7727 09bf

layers.0.bias f4 [256]
0.009402893 -0.2322995 0.06520516 -0.42190003 -0.2759179 -0.23274575 -0.39523548 -0.19890265
0.070999816 -0.42457682 0.11592376 -0.0025820716 0.09605235 0.061719786 0.07183149 -0.503947
-0.25467858 -0.44189566 0.5154527 0.11636253 0.30184326 -0.041232668 0.08020345 0.18721366
0.008375723 -0.46717864 0.1934218 0.24158014 0.13214053 0.36684456 -0.0021979837 -0.039868385
0.07040383 -0.29805806 0.34012657 0.36459392 -0.42795545 -0.065000504 -0.45787126 -0.4815768
0.2051706 0.29284918 0.41854316 0.15461485 0.29297498 -0.14578058 -0.19535673 0.16144148
-0.4690895 -0.11284144 0.117866546 0.20719911 -0.0468215 0.21695648 0.398666 0.33398977
-0.474952 0.40524215 -0.45347002 -0.16926298 0.091403104 -0.003693851 0.099838 -0.10402824
0.08524714 0.45526677 0.19017135 0.4960338 -0.38758802 0.26498652 0.4476361 0.115361325
-0.05884243 0.038205747 0.21008892 -0.22099672 0.47597328 -0.5026303 -0.2898113 0.32807463
0.48594415 -0.25574332 -0.33281112 0.11656732 0.06504991 -0.45007345 -0.28196606 0.48217654
-0.5090854 0.45774758 -0.41669714 -0.16130191 0.14587025 -0.317568 0.24331133 0.2914595
-0.02663922 -0.50276405 -0.19316044 -0.2772874 -0.059994537 -0.4201568 0.20812574 0.24980752
0.4504829 -0.43339208 0.38432854 0.14209668 0.26424873 0.041506417 0.2920775 0.21821952
-0.27962217 0.4408013 -0.13869353 -0.26675582 0.20720348 0.43707356 -0.29894623 0.1506475
-0.42077947 -0.18553245 -0.020312615 -0.50939536 0.32290408 0.33729511 -0.09112875 -0.18709607
0.46739715 0.49848753 0.17054911 -0.083054826 -0.074639544 0.23574467 0.2029019 0.38318035
-0.52911144 -0.22134109 0.47412178 -0.07840656 0.39663193 0.32116804 -0.41875574 -0.3496243
-0.44191292 0.41548094 0.21638802 -0.3450252 0.2152558 -0.36761487 0.21478803 -0.09933256
-0.19367073 -0.34593216 -0.1349972 0.32762754 0.18259084 0.05737094 -0.15698507 -0.4438116
0.10483037 -0.372658 0.0483719 0.2073223 0.09563016 -0.15733324 0.38701525 0.42628706
0.0019617535 -0.15756632 0.48270142 0.28801203 0.03120155 -0.2273101 -0.3085861 0.3820959
0.06193417 0.03516017 0.33167687 -0.5167867 -0.3967264 0.00539126 0.35598245 -0.52121997
0.17773767 0.45958242 -0.24130553 0.37148982 0.23521027 -0.44103113 -0.19304578 -0.23953916
-0.25832424 0.4667826 0.22797313 -0.1647522 0.4443752 0.03633468 0.36461905 -0.29464597
-0.47883487 0.33147466 -0.5183205 0.1559021 -0.50671476 0.41557235 -0.051174857 0.12454339
-0.014559091 0.38118133 0.18793729 0.16604333 0.20559232 -0.24367052 0.2703049 -0.47871283
0.12287629 -0.30997267 -0.14209875 -0.1359992 0.28838858 -0.4064129 0.28217223 0.09920465
-0.4900755 -0.5058234 -0.025021557 0.23152721 -0.4647716 0.06509724 0.4567734 0.4743903
-0.41525555 -0.42298397 -0.1337623 -0.46781254 0.18544291 0.26045483 -0.0010686548 0.3613765
-0.17040843 -0.17582001 0.4493325 -0.4638739 -0.30244872 0.0657933 0.26470122 -0.19038647
-0.12632884 -0.25936094 -0.039079946 0.33208168 -0.39222577 -0.33987537 -0.48715892 -0.47558078
00000000: 970e 1a3c ecdf 6dbe 488a 853d 4803 d8be
00000010: 1c45 8dbe e754 6ebe 4e5c cabe 23ad 4bbe
00000020: 5a68 913d 2262 d9be 7069 ed3d f937 29bb
00000030: 18b7 c43d e3cd 7c3d 631c 933d ac02 01bf
00000040: 3b65 82be 2640 e2be b5f4 033f 7a4f ee3d
00000050: 338b 9a3e 96e3 28bd b541 a43d f0b4 3f3e
00000060: 543a 093c 0a32 efbe 5d10 463e c960 773e
00000070: d94f 073e 0dd3 bb3e 0c0c 10bb 084d 23bd
00000080: e22f 903d 119b 98be 1225 ae3e 0eac ba3e
00000090: fa1c dbbe fc1e 85bd 1a6e eabe 3c91 f6be
000000a0: 3e18 523e 54f0 953e 4a4b d63e 5b53 1e3e
000000b0: d100 963e 8147 15be 980b 48be ea50 253e
000000c0: 802c f0be 6a19 e7bd 0464 f13d 012c 543e
000000d0: e7c7 3fbd d729 5e3e f31d cc3e b500 ab3e
000000e0: e92c f3be e67b cf3e 392d e8be 4653 2dbe
000000f0: 8d31 bb3d 8914 72bb de77 cc3d c20c d5bd
00000100: 0d96 ae3d ba18 e93e 47bc 423e 24f8 fd3e
00000110: f071 c6be 50ac 873e 8f30 e53e 8f42 ec3d
00000120: c304 71bd a17d 1c3d 8d21 573e f74c 62be
00000130: c5b2 f33e 61ac 00bf 2662 94be 66f9 a73e
00000140: accd f83e caf0 82be 3866 aabe d9ba ee3d
00000150: e338 853d 0770 e6be db5d 90be d8df f63e
00000160: 6c53 02bf e45d ea3e 5459 d5be 542c 25be
00000170: 035f 153e 4698 a2be 9b26 793e 2e3a 953e
00000180: 7e3a dabc 25b5 00bf dacb 45be 9df8 8dbe
00000190: d5bc 75bd cb1e d7be ea1e 553e 8bcd 7f3e
000001a0: b2a5 e63e 91e5 ddbe b6c6 c43e cb81 113e
000001b0: 9c4b 873e a202 2a3d 2f8b 953e f074 5f3e
000001c0: a32a 8fbe b5b0 e13e ad05 0ebe 3894 88be
000001d0: 262d 543e 1bc8 df3e 7b0f 99be 5743 1a3e
000001e0: 6870 d7be 38fc 3dbe a466 a6bc bc67 02bf
000001f0: af53 a53e f2b1 ac3e b6a1 babd 1d96 3fbe
00000200: ae4e ef3e c239 ff3e 6da4 2e3e a618 aabd
00000210: 9edc 98bd 0d67 713e 84c5 4f3e 3730 c43e
00000220: d973 07bf 3da7 62be 17c0 f23e 9e93 a0bd
00000230: 5713 cb3e 2370 a43e 2767 d6be f501 b3be
00000240: 6942 e2be ebb9 d43e d294 5d3e 25a7 b0be
00000250: 046c 5c3e 0438 bcbe 65f1 5b3e df6e cbbd
00000260: 9f51 46be 051e b1be b53c 0abe ccbe a73e
00000270: 18f9 3a3e cafd 6a3d b2c0 20be 463b e3be
00000280: 4eb1 d63d 08cd bebe 9d21 463d 4c4c 543e
00000290: bfd9 c33d f71b 21be dd26 c63e 4c42 da3e
000002a0: c390 003b 1159 21be a424 f73e 5076 933e
000002b0: 659a ff3c fbc3 68be fffe 9dbe 13a2 c33e
000002c0: afae 7d3d 1c04 103d 8dd1 a93e 224c 04bf
000002d0: b91f cbbe 2ba9 b03b 5543 b63e ac6e 05bf
000002e0: dd00 363e 634e eb3e cc18 77be ea33 be3e
000002f0: f6da 703e d5ce e1be cbad 45be c149 75be
00000300: 1343 84be 21fe ee3e ca71 693e cdb4 28be
00000310: 2585 e33e acd3 143d 59af ba3e d6db 96be
00000320: d829 f5be 0cb7 a93e a7b0 04bf cda4 1f3e
00000330: 0fb8 01bf e6c5 d43e ba9c 51bd 9b10 ff3d
00000340: 4189 6ebc 332a c33e a272 403e 4307 2a3e
00000350: cb86 523e c484 79be 6765 8a3e d919 f5be
00000360: 90a6 fb3d bdb4 9ebe 5682 11be 6043 0bbe
00000370: aba7 933e 5a15 d0be e178 903e cf2b cb3d
00000380: 2deb fabe a47d 01bf 02fa ccbc 7815 6d3e
00000390: 8bf6 edbe b451 853d 34de e93e 49e3 f23e
000003a0: 609c d4be 5b91 d8be fcf8 08be 2085 efbe
000003b0: bfe4 3d3e 565a 853e 1b12 8cba 5706 b93e
000003c0: 8c7f 2ebe 290a 34be e90e e63e e180 edbe
000003d0: 8fda 9abe a3be 863d eb86 873e acf4 42be
000003e0: 595c 01be f5ca 84be 4b12 20bd 9c06 aa3e
000003f0: d1d1 c8be 2504 aebe e56c f9be 537f f3be

layers.1.weight f4 [256, 256]
0.031503435 -0.021041796 0.039211065 0.009770871 -0.039939553 0.04366672 0.010479358 0.03547376
0.0846285 0.04890294 -0.013952131 -0.051536888 0.0323467 0.0513223 -0.0363201 -0.010937704
-0.024138197 -0.043402083 0.044841394 -0.029741222 -0.012315226 -0.027187044 0.034923814 0.020900982
0.056335125 0.05460731 -0.005305913 -0.030272592 -0.0015216565 0.022931058 0.06758206 0.008863633
-0.028720012 -0.06475561 0.050641287 0.0660522 0.018191362 0.090834215 0.02243059 -0.03438948
0.06372588 0.027568202 -0.02631863 -0.021636603 0.0015256263 0.03511245 -0.06421395 -0.004901559
-0.039166983 0.00021611637 0.079001054 0.08285185 0.059927788 -0.015253953 0.035346553 -0.026106745
-0.046123583 0.05286071 -0.04938892 0.026893774 0.017250577 0.01587081 0.057765894 0.059578322
0.019861093 0.031541534 -0.020245144 0.036386088 -0.054209918 0.035193916 0.0260296 0.092746794
0.059753183 0.044712204 0.06645294 0.027482865 0.082186095 0.006551302 -0.013315866 -0.03764208
0.0550039 0.0017859254 0.03693829 -0.002646748 0.043657552 -0.025898235 0.031875532 0.056534972
-0.030937586 -0.0005584899 0.021703336 -0.05877373 -0.021556718 0.037213452 -0.0007659903 -0.0062925424
0.037068542 -0.013070563 -0.026465083 -0.024260953 0.025973456 -0.051678397 -0.027690386 0.025482032
0.012136208 -0.04559206 0.032277606 0.020712927 -0.034253478 -0.023967423 -0.031357106 0.0016369026
-0.016022561 0.058999516 0.027334014 -0.03460191 0.051763587 0.021732599 0.042074617 0.06598494
0.0017853699 0.06337992 -0.025268346 -0.07146798 0.08170026 -0.03461976 0.04117121 0.04105921
0.02504346 0.057803676 0.06776664 -0.02669427 -0.012038904 0.03335156 0.04851978 0.056220967
0.031012595 -0.04225315 0.0069309324 -0.0358067 0.068742655 -0.005548298 0.039481495 0.041782744
-0.050456204 0.049829055 0.011961615 0.035412945 0.057948507 0.016975857 0.0860701 -0.020593084
-0.026314262 -0.012987432 0.037707083 0.02213326 0.06587438 -0.033001326 -0.040956553 -0.021038804
0.03685701 -0.024896817 -0.041219577 -0.006160073 0.070435494 -0.021876002 0.039721992 0.025295394
0.04072291 0.07916493 0.011810798 -0.0198407 0.020385833 0.001093285 -0.08470562 0.030994229
0.006349325 0.03747693 -0.018528894 -0.07742282 -0.036474116 0.04310016 0.036845878 -0.022976259
0.060943536 0.05103111 -0.020796066 0.075737186 0.025216412 0.021296373 -0.06497492 0.011643466
-0.08328589 0.0083340965 -0.011945808 -0.004000911 0.025597805 0.041594487 0.016002866 -0.017206376
-0.01857114 -0.013809157 -0.032715306 -0.016780566 0.014233786 0.028401956 -0.01217072 0.052603774
-0.04220141 0.07559507 0.0714561 0.033487886 0.020782925 -0.08784265 0.00894044 0.019345243
0.024047378 -0.00015616528 -0.07550924 -0.043334518 0.05491446 -0.04693026 0.07927121 -0.0128954835
0.032395903 0.0028698724 0.026215542 -0.007539842 0.014799924 0.014652618 0.065039776 0.0046005277
-0.07681244 -0.013681566 0.0060110134 -0.05048891 -0.02815656 -0.030131048 -0.018064518 0.021576807
-0.004288747 0.04349294 -0.007894507 0.03331864 -0.045963723 0.063144214 0.007865265 0.036985066
-0.06829827 -0.042933602 0.0736566 0.05174816 0.038109343 -0.004977479 -0.017739613 -0.039183144
00000000: bf09 013d d85f acbc c89b 203d 0116 203c
00000010: a897 23bd e0db 323d 9db1 2b3c ef4c 113d
00000020: b551 ad3d 734e 483d 7b97 64bc 5818 53bd
00000030: f97d 043d 5537 523d 63c4 14bd 0e34 33bc
00000040: 78bd c5bc 62c6 31bd 9cab 373d dda3 f3bc
00000050: cdc5 49bc 5db7 debc 460c 0f3d 8938 ab3c
00000060: a9bf 663d eaab 5f3d 39dd adbb 3afe f7bc
00000070: 5272 c7ba ead9 bb3c 7768 8a3d c538 113c
00000080: 3b46 ebbc 979e 84bd 3d6d 4f3d 6046 873d
00000090: 0d06 953c 4a07 ba3d 5bc0 b73c fcdb 0cbd
000000a0: b782 823d b6d6 e13c 2b9a d7bc 3f3f b1bc
000000b0: 86f7 c73a 13d2 0f3d 9a82 83bd 429d a0bb
000000c0: 8f6d 20bd 4c9d 6239 4ecb a13d 3bae a93d
000000d0: d776 753d b7eb 79bc 8cc7 103d d0dd d5bc
000000e0: 15ec 3cbd 7984 583d 094c 4abd 5550 dc3c
000000f0: 1551 8d3c 8003 823c ee9b 6c3d 6608 743d
00000100: bbb3 a23c b231 013d 25d9 a5bc 9409 153d
00000110: 380b 5ebd 7f27 103d 073c d53c 08f2 bd3d
00000120: c1bf 743d 2524 373d 7b18 883d bf23 e13c
00000130: 2f51 a83d 4eac d63b ca2a 5abc 952e 1abd
00000140: c54b 613d b615 ea3a 9b4c 173d 1075 2dbb
00000150: 43d2 323d 8928 d4bc eb8f 023d 3791 673d
00000160: d270 fdbc 9f67 12ba 32cb b13c b9bc 70bd
00000170: b797 b0bc 226d 183d bdcc 48ba ac31 cebb
00000180: 2fd5 173d ea25 56bc 4dcd d8bc e8be c6bc
00000190: 49c6 d43c baac 53bd f3d6 e2bc b2bf d03c
000001a0: f2d6 463c bdbe 3abd 8635 043d 28ae a93c
000001b0: 604d 0cbd 5457 c4bc 4f70 00bd 568d d63a
000001c0: bf41 83bc 7aa9 713d 95eb df3c bbba 0dbd
000001d0: 0e06 543d 9008 b23c 6f56 2c3d 1d23 873d
000001e0: 1303 ea3a 55cd 813d 90ff cebc ce5d 92bd
000001f0: 7752 a73d 73cd 0dbd 25a3 283d b42d 283d
00000200: f127 cd3c 8cc3 6c3d 3cc9 8a3d f1ad dabc
00000210: d33e 45bc a59b 083d adbc 463d f547 663d
00000220: 200e fe3c a411 2dbd e01c e33b 0caa 12bd
00000230: f3c8 8c3d 7fce b5bb 59b7 213d 6224 2b3d
00000240: 2aab 4ebd 8d19 4c3d a6fa 433c 2a0d 113d
00000250: 6a5b 6d3d f410 8b3c 8545 b03d d4b2 a8bc
00000260: 0291 d7bc 3dc9 54bc be72 1a3d cf50 b53c
00000270: 26e9 863d 662c 07bd 0fc2 27bd 9259 acbc
00000280: 60f7 163d 69f4 cbbc dcd5 28bd 70da c9bb
00000290: 7c40 903d 4d35 b3bc 87b3 223d 4938 cf3c
000002a0: 11cd 263d 3921 a23d 1482 413c f788 a2bc
000002b0: 3100 a73c 8f4c 8f3a 247a adbd 9ce7 fd3c
000002c0: 000e d03b 6981 193d e8c9 97bc db8f 9ebd
000002d0: e265 15bd cb89 303d b4eb 163d b538 bcbc
000002e0: ee9f 793d ff05 513d 835c aabc 191c 9b3d
000002f0: a692 ce3c bb75 ae3c 9211 85bd 3cc4 3e3c
00000300: cb91 aabd bc8b 083c 5ab8 43bc 131a 83bb
00000310: 7db2 d13c fb5e 2a3d 7118 833c 63f4 8cbc
00000320: 8122 98bc cd3f 62bc 7c00 06bd 6677 89bc
00000330: d334 693c 38ab e83c b367 47bc 0e77 573d
00000340: 63db 2cbd 97d1 9a3d 9357 923d 982a 093d
00000350: f440 aa3c d9e6 b3bd ec7a 123c ea79 9e3c
00000360: 02ff c43c 4cc0 23b9 97a4 9abd 897f 31bd
00000370: fced 603d f239 40bd f258 a23d 9447 53bc
00000380: 91b1 043d 7814 3c3b fac1 d63c c710 f7bb
00000390: 617b 723c 8911 703c 9333 853d 06c0 963b
000003a0: d74f 9dbd a628 60bc 09f8 c43b 76cd 4ebd
000003b0: 96a8 e6bc 63d5 f6bc 0afc 93bc d8c1 b03c
000003c0: 9e88 8cbb a725 323d f657 01bc 2079 083d
000003d0: 7544 3cbd c151 813d 50dd 003c a77d 173d
000003e0: f7df 8bbd 25db 2fbd 46d9 963d e1f5 533d
000003f0: 8b18 1c3d 1f1a a3bb aa52 91bc 817e 20bd

layers.1.bias f4 [256]
-0.03112414 0.053074904 0.024680454 0.036892585 0.07705365 -0.0002635679 -0.0735194 0.07402241
-0.073090665 0.036429364 0.022384295 0.0031233463 -0.061023355 -0.0013862568 -0.0115782805 -0.006089754
-0.037738338 0.048325565 -0.06405377 -0.050306454 -0.029596467 -0.007846348 0.045665827 0.02124662
0.06358607 -0.041307006 0.022011528 0.05088439 -0.029768404 0.05060194 -0.06148914 -0.068777345
-0.065292366 0.0008931102 -0.018449644 0.037777204 -0.030805113 -0.057647683 0.06864007 -0.03905521
-0.041481577 0.0044242544 -0.04246019 -0.0052331123 0.0144430185 0.026913386 -0.025986696 0.0018456058
0.015844516 -0.0045444304 -0.04043587 0.025630325 0.0697956 0.06772333 -0.03778195 0.026761131
0.004639299 0.04894142 -0.02694468 -0.01268484 -0.0149214715 -0.07137715 0.044330113 0.07169402
0.04362812 0.04417841 0.05660431 0.027885687 0.060929757 0.052961312 0.034387898 0.02093246
0.045755982 0.06493749 0.025217203 0.024868885 -0.0038523672 0.032687888 -0.032044645 0.07024085
0.05838322 0.042774294 0.0076545854 -0.0060364166 0.05332763 -0.016235787 0.069789566 0.07701869
-0.0031473709 0.03218376 -0.0006595976 -0.0047493186 -0.022489449 0.034762017 -0.04655712 -0.011820431
-0.07073714 0.065342754 0.018936267 -0.020801898 -0.06988551 0.013437872 -0.0016463811 -0.040467214
-0.07335032 0.0039101504 -0.02400016 0.020090723 0.043903537 0.0035068535 -0.030753622 0.044641413
0.07859753 -0.014915797 0.05048114 -0.028714508 0.05262562 0.036461834 -0.04279766 0.05827474
-0.06852045 0.0040783444 0.06336971 0.0025227428 -0.013762147 -0.02794723 0.06824302 -0.01589013
-0.05007058 -0.042243518 -0.010966249 -0.033934373 0.024213612 -0.06045297 0.010565883 -0.058171898
-0.0027322902 0.01333916 0.030365342 0.011255481 -0.02011635 -0.008742678 0.0012221219 0.03648245
0.046534315 0.019822674 -0.022217402 -0.03257435 -0.065048546 -0.01811678 0.022570215 -0.011023699
0.033432964 -0.015642686 0.075983666 0.0059404247 0.046701465 -0.019295322 0.053628296 -0.016667146
-0.0152523015 0.02698546 0.011697041 0.02150341 -0.048834782 -0.058868684 -0.053717546 0.037418406
0.046608172 0.014750111 -0.04214867 -0.051110078 -0.016559979 0.039174795 0.03676314 -0.051478107
-0.027248448 0.06871948 0.035319455 -0.038478732 -0.068551786 -0.031169886 -0.017178455 0.041792933
0.04375075 -0.035706744 0.011331295 0.02636998 0.04454637 -0.017437914 0.011740993 0.028601117
-0.018263126 0.023927081 0.0063487086 -0.020328045 -0.030442793 0.013540073 -0.002339575 -0.045918677
-0.030445348 -0.03764145 0.05165085 0.06091608 0.081934296 0.014848045 -0.014349067 0.032931216
0.0062347464 -0.054874998 0.024495399 0.031169554 0.019949876 0.055680837 0.03415031 0.019774208
0.03068696 -0.03219927 0.0035360523 -0.03914675 -0.05567984 0.019808333 0.020701362 0.04068452
0.03826404 0.009483387 -0.0069175 -0.018002156 0.0044443533 -0.034990538 0.038439017 0.0009766663
-0.030010961 0.044474833 -0.03189586 -0.023287136 0.03021405 -0.06401923 0.065968215 0.08178121
0.06481172 -0.06287755 -0.006289823 -0.0062303296 -0.03173941 -0.055819437 -0.016291404 0.023592329
-0.053434417 -0.008083997 0.008421665 -0.07351445 -0.027441071 0.07330753 0.06376472 -0.0060529453
00000000: 0df8 febc 1265 593d aa2e ca3c ae1c 173d
00000010: 4ece 9d3d 7c2f 8ab9 5791 96bd 1099 973d
00000020: 8fb0 95bd f536 153d 455f b73c 0eb1 4c3b
00000030: a0f3 79bd 0fb3 b5ba d4b2 3dbc 8f8c c7bb
00000040: 8493 1abd 07f1 453d 9f2e 83bd 240e 4ebd
00000050: 4a74 f2bc f88d 00bc 170c 3b3d 640d ae3c
00000060: 6a39 823d 8931 29bd 8551 b43c 266c 503d
00000070: dedc f3bc fb43 4f3d 09dc 7bbd 23db 8cbd
00000080: 01b8 85bd 9c1f 6a3a b523 97bc 45bc 1a3d
00000090: 015b fcbc fa1f 6cbd 2a93 8c3d 5bf8 1fbd
000000a0: 96e8 29bd 56f9 903b bcea 2dbd 877a abbb
000000b0: 69a2 6c3c 7679 dc3c 0de2 d4bc 41e8 f13a
000000c0: 5ccc 813c 72e9 94bb 15a0 25bd b0f6 d13c
000000d0: fff0 8e3d 87b2 8a3d 3fc1 1abd 293a db3c
000000e0: 4305 983b cc76 483d 17bb dcbc 13d4 4fbc
000000f0: 3079 74bc 2f2e 92bd 7e93 353d 50d4 923d
00000100: 66b3 323d 6cf4 343d ecd9 673d 8670 e43c
00000110: 7b91 793d f6ed 583d 53da 0c3d 8d7a ab3c
00000120: a06a 3b3d f2fd 843d 4f94 ce3c d5b9 cb3c
00000130: ff77 7cbb bce3 053d 3f41 03bd 6fda 8f3d
00000140: 3e23 6f3d 1934 2f3d 51d3 fa3b 22cd c5bb
00000150: 136e 5a3d ea00 85bc d5ed 8e3d fabb 9d3d
00000160: 1f44 4ebb 1ed3 033d d8e8 2cba 2ca0 9bbb
00000170: cb3b b8bc 9e62 0e3d aeb2 3ebd 7baa 41bc
00000180: a2de 90bd 6cd2 853d 3b20 9b3c be68 aabc
00000190: 2220 8fbd 852a 5c3c 62cb d7ba f3c0 25bd
000001a0: b138 96bd b820 803b fc9b c4bc 4d95 a43c
000001b0: 32d4 333d 3dd3 653b 05ef fbbc ead9 363d
000001c0: bef7 a03d 6361 74bc 50c5 4e3d b03a ebbc
000001d0: f68d 573d 0159 153d 994c 2fbd 7eb1 6e3d
000001e0: 7354 8cbd a2a3 853b fbc7 813d 9a54 253b
000001f0: a17a 61bc 97f1 e4bc ffc2 8b3d 052c 82bc
00000200: cf16 4dbd 8a07 2dbd c8ab 33bc c5fe 0abd
00000210: a05b c63c 899d 77bd 861c 2d3c a845 6ebd
00000220: 3910 33bb 7e8c 5a3c bdc0 f83c e968 383c
00000230: 0bcb a4bc 733d 0fbc 9b2f a03a 9f6e 153d
00000240: c49a 3e3d 2963 a23c 4501 b6bc ae6c 05bd
00000250: 2c38 85bd a469 94bc 2ce5 b83c bf9c 34bc
00000260: 01f1 083d 1725 80bc 539d 9b3d e5a7 c23b
00000270: 094a 3f3d 3911 9ebc 58a9 5b3d 8a89 88bc
00000280: cae4 79bc 9d10 dd3c f2a4 3f3c eb27 b03c
00000290: fb06 48bd 4a20 71bd ee06 5cbd 0b44 193d
000002a0: 36e8 3e3d 73aa 713c 15a4 2cbd cd58 51bd
000002b0: cba8 87bc c075 203d f294 163d b5da 52bd
000002c0: 2338 dfbc ccbc 8c3d 22ab 103d e09b 1dbd
000002d0: e164 8cbd fd57 ffbc d5b9 8cbc 112f 2b3d
000002e0: fd33 333d 3c41 12bd e5a6 393c db05 d83c
000002f0: 4176 363d f5d9 8ebc 4b5d 403c e44c ea3c
00000300: 8d9c 95bc ba02 c43c d408 d03b 0087 a6bc
00000310: 2a63 f9bc 2fd7 5d3c 8e53 19bb 3915 3cbd
00000320: 8668 f9bc ec2d 1abd d78f 533d 2483 793d
00000330: 2bcd a73d 3745 733c 5918 6bbc e2e2 063d
00000340: d84c cc3b 9bc4 60bd 93aa c83c 4b57 ff3c
00000350: ec6d a33c 9711 643d 32e1 0b3d 85fd a13c
00000360: 3863 fb3c 62e3 03bd 1dbd 673b 5858 20bd
00000370: 8b10 64bd 1645 a23c e795 a93c d0a4 263d
00000380: c1ba 1c3d 3560 1b3c 32ac e2bb 4279 93bc
00000390: f0a1 913b 3d52 0fbd 3b72 1d3d 7c03 803a
000003a0: 8cd9 f5bc 3e2b 363d 3ca5 02bd aac4 bebc
000003b0: 7583 f73c 841c 83bd 581a 873d e87c a73d
000003c0: 02bc 843d f2c5 80bd dc1a cebb cb27 ccbb
000003d0: 2f01 02bd eca2 64bd 8d75 85bc b344 c13c
000003e0: 0cde 5abd be72 04bc 06fb 093c be8e 96bd
000003f0: 19cc e0bc 4222 963d 1497 823d c957 c6bb

output.weight f4 [4, 256]
-0.03913522 0.02606088 -0.04543794 -0.06522017 -0.045587584 -0.063788444 0.0784898 -0.038798094
0.06414196 0.009359494 0.018114911 -0.041090377 0.068775974 -0.020901456 0.012829725 0.012337555
0.048703477 0.038884643 0.08242638 0.04325151 0.07811703 -0.023894832 -0.075819254 -0.052091792
-0.07348248 0.07242376 -0.04826504 -0.063025296 0.051579803 -0.08735069 0.048682302 0.001637156
0.027016513 -0.039068636 0.078495264 0.023056827 0.025637446 0.07476342 -0.07492098 0.0064989016
0.002229654 -0.07553867 -0.030805023 0.042217042 -0.05470613 0.04681861 0.07457401 0.06763807
0.057722878 0.06907903 0.073979326 0.0043488247 -0.06487785 -0.025980713 0.06620984 -0.03368726
0.037818246 0.042224362 0.0071205967 0.06469411 -0.060146645 0.041044544 0.010185509 -0.07563865
0.0099421395 0.014031258 -0.02758658 -0.014019329 -0.004121936 -0.05886662 0.082412496 -0.0056471014
-0.0241325 -0.054788496 0.045822702 -0.008956634 -0.028019177 -0.049516656 -0.030869072 -0.033509232
0.013337607 0.03881057 -0.018844979 0.053971685 -0.058914017 -0.025869953 -0.0018934143 -0.036656853
-4.2185955e-05 -0.062042587 0.0063937088 0.008827425 0.07354058 -0.022463217 -0.0055794334 -0.024174139
-0.013330465 -0.08609776 0.064694665 -0.009648023 -0.012402333 0.06859456 0.053516004 -0.0033171838
0.023119241 -0.031409606 -0.04106838 -0.024674054 0.011215552 0.053269643 0.07233711 -0.031144118
-0.04355477 0.03972255 0.05606876 0.021392621 -0.005647897 -0.027202591 -0.0223816 0.009780412
-0.024377098 -0.06345228 -0.08389238 -0.053345364 -0.06763546 -0.039712805 -0.08461502 -0.08862004
0.038861427 -0.04417746 0.07245988 0.041209 0.07380333 -0.035612404 -0.020001 0.00809342
0.006954644 -0.0128787 -0.051036708 -0.027940705 -0.015083719 0.0063889273 0.036738873 0.008577332
0.06600871 -0.06139461 -0.05834362 -0.07774446 -0.010087609 -0.001841595 -0.001969474 -0.057861365
0.0519796 0.061750196 -0.05513495 0.05580861 -0.049799025 0.012851 -0.020839134 -0.03970226
-0.05110374 -0.01852885 0.07130179 -0.06834087 0.03828458 0.043500766 -0.02864827 -0.07676963
0.03908632 -0.052419603 0.066923745 0.008870303 -0.009896471 -0.026948402 0.046036977 0.03526922
-0.028460838 -0.079593085 -0.0012688774 0.07780353 0.066087104 -0.05423636 -0.063586056 -0.035681132
0.07516153 0.04539183 0.07413022 0.002514822 -0.022212824 0.07343801 0.07172804 -0.009757832
0.0080677355 0.0034452202 -0.06772299 0.063410744 -0.0149965035 -0.0046574245 0.06659945 0.054148126
-0.066866465 0.025934082 -0.010233566 -0.09076521 -0.04509735 0.07712483 0.04190311 0.024991252
-0.033180505 0.05126348 -0.055968333 -0.008644138 0.04620578 -0.00034096907 -0.067342944 -0.025162844
0.06627912 -0.054154024 -0.049199365 0.037434142 0.06989149 0.06352033 -0.043007 0.04124018
0.07423219 -0.012470745 -0.026254326 0.003905876 -0.069313526 -0.022196272 0.05220511 -0.055902805
-0.056827188 0.03707986 0.04920554 0.06295895 -0.048944343 0.025332747 -0.07635787 -0.07048664
-0.058651716 0.072054036 0.030553693 -0.02776948 0.04897483 -0.034683455 -0.06874207 -0.0016058118
0.07000159 0.05182878 -0.07614744 0.031227192 0.016519086 0.034902107 0.014238561 0.02895851
00000000: 414c 20bd a07d d53c 221d 3abd 2792 85bd
00000010: 0cba 3abd 84a3 82bd 43bf a03d c0ea 1ebd
00000020: dc5c 833d 9058 193c b965 943c 624e 28bd
00000030: 6bda 8c3d 8839 abbc c433 523c 7523 4a3c
00000040: 4c7d 473d 8145 1f3d 29cf a83d 7f28 313d
00000050: d2fb 9f3d 18bf c3bc 2047 9bbd 345e 55bd
00000060: fc7d 96bd e952 943d 90b1 45bd 6813 81bd
00000070: 5845 533d ebe4 b2bd 1867 473d d795 d63a
00000080: bc51 dd3c 6f06 20bd 20c2 a03d ace1 bc3c
00000090: 9f05 d23c 901d 993d 2c70 99bd bdf4 d43b
000000a0: 631f 123b 05b4 9abd d15a fcbc c7eb 2c3d
000000b0: 8913 60bd dfc4 3f3d 42ba 983d d485 8a3d
000000c0: d36e 6c3d 4e79 8d3d 7982 973d 9680 8e3b
000000d0: aede 84bd 81d5 d4bc 0699 873d a7fb 09bd
000000e0: 4ee7 1a3d 74f3 2c3d e553 e93b 587e 843d
000000f0: 545c 76bd 531e 283d 1fe1 263c 70e8 9abd
00000100: 5be4 223c 5de3 653c 40fd e1bc 54b1 65bc
00000110: 4e11 87bb 201e 71bd e2c7 a83d 520b b9bb
00000120: 85b1 c5bc e769 60bd 96b0 3b3d d9be 12bc
00000130: 7988 e5bc fad1 4abd 23e1 fcbc fa40 09bd
00000140: fa85 5a3c d5f7 1e3d c960 9abc 6a11 5d3d
00000150: d34f 71bd 39ed d3bc 712c f8ba 7f25 16bd
00000160: d3f0 30b8 5e20 7ebd 5182 d13b e7a0 103c
00000170: 729c 963d c804 b8bc aed3 b6bb d808 c6bc
00000180: 0668 5abc 0654 b0bd a37e 843d be12 1ebc
00000190: 2833 4bbc 4e7b 8c3d 9933 5b3d 1c65 59bb
000001a0: 9064 bd3c 5ca7 00bd 5137 28bd 3e21 cabc
000001b0: 6fc1 373c 4531 5a3d 7b25 943d f321 ffbc
000001c0: 7d66 32bd 1db4 223d 5ba8 653d 943f af3c
000001d0: fe11 b9bb f8d7 debc 9e59 b7bc 053e 203c
000001e0: 7bb2 c7bc 45f3 81bd c5cf abbd ab80 5abd
000001f0: 7684 8abd e5a9 22bd a44a adbd 6c7e b5bd
00000200: 292d 1f3d 6df3 34bd d865 943d c5ca 283d
00000210: 3326 973d 50de 11bd 23d9 a3bc 449a 043c
00000220: c8e3 e33b 2f01 53bc de0b 51bd e8e3 e4bc
00000230: b421 77bc 355a d13b 807b 163d f087 0c3c
00000240: 932f 873d ea78 7bbd b8f9 6ebd 7d38 9fbd
00000250: 8046 25bc ad61 f1ba 4a12 01bb 0a00 6dbd
00000260: 90e8 543d c6ed 7c3d 2fd5 61bd 9297 643d
00000270: 10fa 4bbd 008d 523c d5b6 aabc d69e 22bd
00000280: 2852 51bd d1c9 97bc ac06 923d 4cf6 8bbd
00000290: 4bd0 1c3d dc2d 323d c7af eabc 6539 9dbd
000002a0: fa18 203d f0b5 56bd 510f 893d bf54 113c
000002b0: cf24 22bc e5c2 dcbc 4591 3c3d 7576 103d
000002c0: b426 e9bc b301 a3bd 7650 a6ba 7557 9f3d
000002d0: ad58 873d f226 5ebd 6839 82bd 6126 12bd
000002e0: 4aee 993d c9ec 393d 96d1 973d b6cf 243b
000002f0: abf7 b5bc ab66 963d 27e6 923d 50df 1fbc
00000300: 892e 043c 34c9 613b 5ab2 8abd 7edd 813d
00000310: e5b3 75bc 4f9d 98bb 4b65 883d 6dca 5d3d
00000320: 49f1 88bd b673 d43c b0aa 27bc 1ce3 b9bd
00000330: 00b8 38bd 9ff3 9d3d 98a2 2b3d 74ba cc3c
00000340: 48e8 07bd a8f9 513d 0d3f 65bd 25a0 0dbc
00000350: 4642 3d3d 18c4 b2b9 19eb 89bd 4f22 cebc
00000360: 59bd 873d 9cd0 5dbd 4685 49bd 8b54 193d
00000370: 4523 8f3d f216 823d 1c28 30bd 77eb 283d
00000380: 0c07 983d 1852 4cbc 5013 d7bc baf9 7f3b
00000390: 40f4 8dbd f5d4 b5bc 07d5 553d 57fa 64bd
000003a0: a0c3 68bd 0de1 173d c08b 493d 9ff0 803d
000003b0: dd79 48bd 9f86 cf3c 8461 9cbd 4d5b 90bd
000003c0: c83c 70bd 1191 933d bd4b fa3c d27c e3bc
000003d0: d599 483d 3d10 0ebd a4c8 8cbd 1a7a d2ba
000003e0: fe5c 8f3d 6a4a 543d 30f3 9bbd 2bd0 ff3c
000003f0: 0953 873c 83f5 0e3d da48 693c 663a ed3c

output.bias f4 [4]
-0.05842083 -0.035886183 0.0127388425 -0.05946033
00000000: ae4a 6fbd 64fd 12bd 94b6 503c ad8c 73bd
