runs/wargame.pt (torch, 2717 bytes, 4 tensors)

fc1.weight f4 [10, 4]
0	0xbdce9d3c	-0.10088584
1	0xbf089e44	-0.53366494
2	0xbef94c50	-0.48691034
3	0x3eb676d6	0.3563754
4	0xbfd7e6b6	-1.6867282
5	0xbf5c960c	-0.86166453
6	0x40638ed8	3.5555935
7	0x405205b8	3.281599
8	0xbf95a7b1	-1.16918
9	0xbf256219	-0.6460281
10	0x4065e9c1	3.5923922
11	0x403338c9	2.800341
12	0xc05ad854	-3.4194536
13	0xbfabc521	-1.3419534
14	0x40190602	2.3909917
15	0x40367974	2.851163
16	0xbfa20a7e	-1.2659452
17	0xbdd79cb2	-0.10527934
18	0x40342614	2.814824
19	0x4052af62	3.2919545
20	0xbec838c0	-0.39105797
21	0xbd298c23	-0.04139341
22	0xbe842310	-0.25808
23	0x3e298c15	0.16557343
24	0xbed8809a	-0.42285615
25	0x3d1084d0	0.03528291
26	0xbde1cb38	-0.11025089
27	0xbe30b224	-0.17255455
28	0x403d42cf	2.9572027
29	0x402bb270	2.682766
30	0xbdee7009	-0.11642463
31	0xbbc4bf9b	-0.0060042865
32	0x3da935f0	0.08262241
33	0xbefb662a	-0.49101382
34	0xbee09434	-0.4386307
35	0xbd473a70	-0.048639715
36	0xbe2df330	-0.169873
37	0xbebd2b00	-0.3694687
38	0x3e6c10e0	0.23053312
39	0xbeb03962	-0.3441878

fc1.bias f4 [10]
0	0x3d80c466	0.0628746
1	0x404ee4e2	3.23272
2	0x4047545b	3.1145236
3	0x40251a69	2.579737
4	0x4024a0dd	2.5723183
5	0xbf10ee45	-0.5661357
6	0x3ee48fa0	0.44640827
7	0x3e5df5c2	0.2167578
8	0xbefda112	-0.4953695
9	0x3b283600	0.0025666952

output.weight f4 [4, 10]
0	0x3cfed26d	0.031106198
1	0xc013895a	-2.3052583
2	0xc01bba96	-2.4332633
3	0xc011751d	-2.272773
4	0xc017a16b	-2.3692272
5	0x3d982fdc	0.074310035
6	0x3e5dc089	0.21655478
7	0x3ff7a216	1.934634
8	0xbe9617f5	-0.29315153
9	0xbd9dd0d8	-0.077058494
10	0x3e53d795	0.20687707
11	0xc0110a88	-2.2662678
12	0xbfff04e7	-1.9923371
13	0xc033ca53	-2.809224
14	0xc01db14b	-2.463946
15	0xbd1c2190	-0.038117945
16	0x3e017307	0.12641536
17	0x3fd5b956	1.6697185
18	0x3e1b3c28	0.15159667
19	0x3cab77e4	0.020931192
20	0xbe97829e	-0.2959184
21	0xc0145efe	-2.3182979
22	0xc022c40a	-2.5432153
23	0xc023f4be	-2.5618129
24	0xc0183ea9	-2.3788245
25	0xbe04e30e	-0.1297724
26	0x3e7d6553	0.24745683
27	0x3fd99b89	1.700059
28	0x3dcc1962	0.09965779
29	0xbd80623e	-0.06268738
30	0x3e2b341d	0.16719098
31	0xc0136f1c	-2.3036566
32	0xc01df510	-2.4680824
33	0xc019398e	-2.3941379
34	0xc01fa1a7	-2.4942415
35	0xbdeb4e21	-0.11489511
36	0xbe64078c	-0.22268504
37	0x3fe6793f	1.8005751
38	0xbdc86083	-0.09784033
39	0xbdcc54e5	-0.0997713

output.bias f4 [4]
0	0xbfeac4a2	-1.8341258
1	0xbfd3006f	-1.6484507
2	0xbfd3be79	-1.6542503
3	0xbfc786b2	-1.5587981
